num epochs = 30
batch size = 
Found 114836 images belonging to 7 classes.
Found 14356 images belonging to 7 classes.
Model: "simple_model"
_________________________________________________________________
Layer (type)                 Output Shape              Param #   
=================================================================
conv2d (Conv2D)              (None, 48, 48, 64)        1792      
_________________________________________________________________
batch_normalization (BatchNo (None, 48, 48, 64)        256       
_________________________________________________________________
max_pooling2d (MaxPooling2D) (None, 24, 24, 64)        0         
_________________________________________________________________
dropout (Dropout)            (None, 24, 24, 64)        0         
_________________________________________________________________
conv2d_1 (Conv2D)            (None, 24, 24, 128)       204928    
_________________________________________________________________
batch_normalization_1 (Batch (None, 24, 24, 128)       512       
_________________________________________________________________
max_pooling2d_1 (MaxPooling2 (None, 12, 12, 128)       0         
_________________________________________________________________
dropout_1 (Dropout)          (None, 12, 12, 128)       0         
_________________________________________________________________
conv2d_2 (Conv2D)            (None, 12, 12, 512)       590336    
_________________________________________________________________
batch_normalization_2 (Batch (None, 12, 12, 512)       2048      
_________________________________________________________________
max_pooling2d_2 (MaxPooling2 (None, 6, 6, 512)         0         
_________________________________________________________________
dropout_2 (Dropout)          (None, 6, 6, 512)         0         
_________________________________________________________________
conv2d_3 (Conv2D)            (None, 6, 6, 512)         2359808   
_________________________________________________________________
batch_normalization_3 (Batch (None, 6, 6, 512)         2048      
_________________________________________________________________
max_pooling2d_3 (MaxPooling2 (None, 3, 3, 512)         0         
_________________________________________________________________
dropout_3 (Dropout)          (None, 3, 3, 512)         0         
_________________________________________________________________
flatten (Flatten)            (None, 4608)              0         
_________________________________________________________________
dense (Dense)                (None, 256)               1179904   
_________________________________________________________________
batch_normalization_4 (Batch (None, 256)               1024      
_________________________________________________________________
dropout_4 (Dropout)          (None, 256)               0         
_________________________________________________________________
dense_1 (Dense)              (None, 512)               131584    
_________________________________________________________________
batch_normalization_5 (Batch (None, 512)               2048      
_________________________________________________________________
dropout_5 (Dropout)          (None, 512)               0         
_________________________________________________________________
dense_2 (Dense)              (None, 7)                 3591      
=================================================================
Total params: 4,479,879
Trainable params: 4,475,911
Non-trainable params: 3,968
_________________________________________________________________
Done setting up image labeling logger.
WARNING:tensorflow:sample_weight modes were coerced from
  ...
    to  
  ['...']
WARNING:tensorflow:sample_weight modes were coerced from
  ...
…
